sir_model_params_6_1 (1).pth (torch, 484963 bytes, 10 tensors)

layers.0.weight f4 [256, 300]
-0.10094839 -0.0828701 -0.095749624 -0.10123585 -0.08281472 -0.019831035 -0.04317867 -0.07353465
-0.024109742 -0.017528256 0.11977264 0.1961902 0.37974486 0.49247357 0.51874804 0.4086338
0.33152428 0.17157163 0.1471886 0.04694041 0.122042745 -0.032192443 0.0135220485 -0.07349196
-0.057475634 -0.035655208 -0.18878976 -0.111292556 -0.14065412 -0.014301501 -0.05657389 -0.12870522
-0.15017493 -0.082114 -0.13727207 -0.094620526 -0.03403067 -0.1672959 0.0075521087 0.015470511
0.009179836 -0.018690865 -0.0030920724 -0.08083918 -0.1074702 -0.026342 0.019578367 0.12078119
-0.12597476 0.055375043 0.0068165543 0.01958999 0.037320282 0.060049936 -0.044355664 0.029599793
0.071186945 -0.041358355 0.02362169 -0.017073657 0.011783296 -0.038443793 0.116193 -0.011446129
0.0046335566 -0.01978834 -0.039597884 -0.06401917 -0.12698829 0.015885912 -0.016132057 0.060206573
0.034301054 0.0026956387 -0.023364423 -0.020935552 -0.033212416 -0.077075124 -0.13203914 0.020792723
0.06021934 -0.025519073 0.05074888 -0.0040201796 -0.034369193 0.02841535 0.022302411 -0.10549234
-0.027260646 0.007228512 -0.070666775 0.08564585 -0.0032864949 0.06231008 -0.0126919085 0.023618305
-0.07473251 -0.015872428 -0.000999713 0.029419092 -0.013507895 -0.081143595 -0.051212586 -0.15754704
-0.27451196 -0.20402132 -0.09877592 -0.49888274 -0.54731405 -0.41465798 -0.29079708 -0.29321432
-0.29470024 -0.33424658 -0.30207235 -0.197205 -0.17286125 -0.026070993 -0.002898265 0.015381367
0.067979895 0.06330945 0.074831575 0.18090612 0.18582226 0.11818747 0.13506688 0.23175432
0.21648493 0.13990317 0.20558375 0.13966739 0.14381266 0.0956435 0.10240407 0.16920312
0.040470693 0.08466979 -0.014592794 0.04189599 0.011352938 0.01122917 -0.0017559809 -0.0035363452
0.05252762 -0.059644397 -0.02784444 -0.02835085 -0.053502224 0.010730758 0.016408518 -0.061542034
-0.016806763 -0.015234196 -0.08273464 0.008976327 -0.06341796 0.074140586 -0.0029346833 -0.07093843
-0.019938037 0.038778678 -0.07265056 0.042936735 0.0050507467 -0.041512087 -0.07551186 -0.006104576
-0.028038207 0.045609087 0.006954673 -0.07336452 0.029564677 0.0339144 0.024169456 -0.028964208
-0.014395298 0.024129057 -0.0072253635 -0.008243629 0.011443469 0.07292829 0.0074954806 -0.06924509
-0.017982647 -0.06799827 0.081386894 -0.006665282 0.0545778 -0.07403627 -0.17955258 0.057611324
0.04013631 -0.029763293 0.06773168 -0.04014156 -0.0406311 -0.070916146 -0.005307381 0.023381766
-0.06338513 0.008134585 0.02571044 0.0026152448 0.035292562 0.17015834 0.10328474 0.10151885
0.07196975 0.13349442 -0.003762777 0.17743187 0.119301274 -0.014722678 -0.048906475 0.1019147
0.035694152 0.044423033 0.010935122 0.026916249 -0.051417686 -0.057339583 -0.049711477 -0.064506315
-0.07294596 -0.09395877 -0.12452841 -0.13258307 -0.05852153 -0.05336377 -0.0285561 -0.04510944
-0.09096168 -0.07384256 0.010292622 -0.004900719 -0.04774869 0.013764568 0.009507487 -0.036340717
0.022928884 -0.044617996 0.04178258 0.027040642 -0.0074208397 0.064545505 0.030612178 0.06778768
0.054021537 0.09152162 0.06357668 0.05428628 0.050600935 0.0008251239 0.076961346 0.043707248
00000000: 08be cebd cdb7 a9bd 6118 c4bd be54 cfbd
00000010: c49a a9bd b274 a2bc 1edc 30bd 5699 96bd
00000020: cb81 c5bc 6b97 8fbc 5c4b f53d 15e6 483e
00000030: eb6d c23e 7f25 fc3e accc 043f 7338 d13e
00000040: 8dbd a93e 79b0 2f3e 9cb8 163e 9644 403d
00000050: 8cf1 f93d 39dc 03bd 958b 5d3c f482 96bd
00000060: 926b 6bbd 320b 12bd 1a52 41be 5aed e3bd
00000070: a207 10be d850 6abc 06ba 67bd 4dcb 03be
00000080: 75c7 19be 632b a8bd 0d91 0cbe 68c8 c1bd
00000090: be63 0bbd 9e4f 2bbe ae77 f73b 0778 7d3c
000000a0: 0667 163c 961d 99bc 5ea4 4abb 038f a5bd
000000b0: 5619 dcbd 2ecb d7bc d062 a03c 215c f73d
000000c0: 87ff 00be f1d0 623d 675d df3b 307b a03c
000000d0: 27dd 183d ecf6 753d 49ae 35bd 447b f23c
000000e0: 76ca 913d 6167 29bd 4682 c13c 0ede 8bbc
000000f0: ba0e 413c 3d77 1dbd 98f6 ed3d 8b88 3bbc
00000100: 17d5 973b 281b a2bc 6431 22bd 7c1c 83bd
00000110: 3809 02be 2c23 823c 6027 84bc 2b9b 763d
00000120: 437f 0c3d 50a9 303b bf66 bfbc 0981 abbc
00000130: be09 08bd 90d9 9dbd 4535 07be 8055 aa3c
00000140: 8ea8 763d 600d d1bc 0fde 4f3d b6bb 83bb
00000150: b6c6 0cbd 4fc7 e83c 8cb3 b63c 5e0c d8bd
00000160: b851 dfbc 27dd ec3b beb9 90bd 1767 af3d
00000170: 3c62 57bb db38 7f3d b9f1 4fbc 2d7b c13c
00000180: 5c0d 99bd e506 82bc cd08 83ba 4f00 f13c
00000190: 3850 5dbc 9d2e a6bd 4ac4 51bd 0354 21be
000001a0: d58c 8cbe f7ea 50be 084b cabd 8f6d ffbe
000001b0: c61c 0cbf 0d4e d4be 5be3 94be 3020 96be
000001c0: f3e2 96be 5e22 abbe 3aa9 9abe 1cf0 49be
000001d0: 8a02 31be d692 d5bc d1f0 3dbb 2102 7c3c
000001e0: 0b39 8b3d 63a8 813d 4c41 993d 743f 393e
000001f0: 3148 3e3e 460c f23d f94e 0a3e 0151 6d3e
00000200: 3aae 5d3e c742 0f3e 8c84 523e f804 0f3e
00000210: a043 133e bde0 c33d 3ab9 d13d 9543 2d3e
00000220: 99c4 253d 5b67 ad3d 9d16 6fbc 219b 2b3d
00000230: ac01 3a3c 8dfa 373c f128 e6ba 07c2 67bb
00000240: 3427 573d af4d 74bd 061a e4bc 0b40 e8bc
00000250: 2625 5bbd 10d0 2f3c 286b 863c 8013 7cbd
00000260: 56ae 89bc d998 79bc c770 a9bd 7211 133c
00000270: 47e1 81bd 05d7 973d d153 40bb 2b48 91bd
00000280: 1855 a3bc 64d6 1e3d d1c9 94bd 6ede 2f3d
00000290: bc80 a53b 9408 2abd f6a5 9abd e508 c8bb
000002a0: 62b0 e5bc 98d0 3a3d 07e4 e33b 2340 96bd
000002b0: 9f31 f23c d3e9 0a3d 06ff c53c 5946 edbc
000002c0: 42da 6bbc 4daa c53c bec2 ecbb 4910 07bc
000002d0: 637d 3b3c 6d5b 953d a69c f53b 5fd0 8dbd
000002e0: 5850 93bc ad42 8bbd 2cae a63d 7068 dabb
000002f0: f98c 5f3d 54a0 97bd a2dc 37be daf9 6b3d
00000300: f965 243d 26d2 f3bc e8b6 8a3d 7a6b 24bd
00000310: cc6c 26bd 7c3c 91bd 8ae9 adbb 1e8b bf3c
00000320: 10d0 81bd ec46 053c b39e d23c 8764 2b3b
00000330: ef8e 103d fd3d 2e3e f386 d33d 1de9 cf3d
00000340: e064 933d c3b2 083e ec98 76bb b3b0 353e
00000350: 3a54 f43d 6337 71bc 2852 48bd a7b8 d03d
00000360: 0834 123d edf4 353d 3a29 333c 777f dc3c
00000370: 5a9b 52bd e9dc 6abd 439e 4bbd e31b 84bd
00000380: b164 95bd 756d c0bd c008 ffbd dbc3 07be
00000390: 46b4 6fbd f893 5abd 7bee e9bc adc4 38bd
000003a0: 1e4a babd c53a 97bd 63a2 283c 3696 a0bb
000003b0: 2194 43bd c884 613c 4ac5 1b3c 01da 14bd
000003c0: 5bd5 bb3c 5cc1 36bd 3624 2b3d 5684 dd3c
000003d0: 842a f3bb 6f30 843d 64c6 fa3c 44d4 8a3d
000003e0: b045 5d3d b06f bb3d 7e34 823d 4a5b 5e3d
000003f0: ed42 4f3d 214d 583a e99d 9d3d 5f06 333d

layers.0.bias f4 [256]
0.18793438 -0.35370117 -0.16132207 0.14386149 -0.17673863 -0.1710206 0.05000194 0.06526599
-0.36233306 0.0041517895 0.07497208 -0.1365893 -0.34855318 -0.0863353 0.060194142 -0.30993208
-0.20284997 -0.31537974 -0.26665235 -0.27710283 -0.07541483 0.22758757 0.050649285 0.10843585
-0.33732736 -0.58835804 0.31703553 -0.3001939 0.10788057 0.19381434 -0.12742482 -0.122649126
0.018054372 0.401904 0.07612397 -0.20826824 0.17246053 0.022513552 0.36162746 0.06776192
-0.032355536 0.07773414 0.13968153 -0.39762253 0.023565456 -0.47663417 -0.27108213 -0.42112118
-0.2538508 -0.12376359 -0.38374025 -0.43901387 -0.20752895 -0.07643908 -0.11038129 -0.2645947
-0.11432667 -0.094105154 0.026535114 0.66985 -0.06628701 -0.22341937 0.48768124 -0.3190126
0.34186533 0.047465537 -0.5054588 -0.19820906 -0.3797164 0.5063378 -0.4256956 -0.053885423
0.121227175 -0.15174589 -0.49443835 -0.30436632 0.3942047 -0.33230323 -0.034323532 0.16930175
-0.46084183 0.01863318 -0.29108575 0.19922115 0.1558876 -0.036409844 -0.34615487 0.39294392
-1.5717398 -0.34301916 -0.18315947 0.3241099 0.1835022 0.111094326 0.37766317 0.15748225
0.053059284 0.20051451 0.12973215 -0.09591112 -0.13723518 -0.2847167 -0.112947784 -0.43071318
0.26793274 -0.17510328 -0.24349633 0.1442906 0.8143008 0.18686143 -0.08786678 -0.2907354
0.004950772 -0.22720325 -0.6231453 0.13174598 0.23107632 -0.30918115 0.26943022 -0.22918394
-0.06867289 0.021824436 0.02012089 -0.2600766 0.30162716 0.14121215 -0.048076868 0.28688583
0.16800633 0.17413406 0.42406747 -0.29566142 0.21016711 0.39384365 -0.24062544 -0.10537011
-0.095016144 -0.07195587 0.25327638 -0.16359651 0.36607853 -0.240587 0.3949172 0.2571228
-0.13248639 -0.20305842 0.063355386 0.30277884 0.12850082 -0.25372332 0.27769333 -0.003117785
-0.015834717 -0.23793618 0.22022358 -0.06680163 0.36186248 -0.1598237 -0.18374889 -0.32231244
-0.20577995 -0.16133575 -0.4223277 -0.033985227 -0.11851019 0.04747352 -0.42556784 -0.28265443
0.1538336 -0.3050181 -0.38912234 0.104721144 0.056805227 0.09252683 -0.15270612 -0.29768044
-0.37538436 -0.28749466 0.28864518 0.34296167 -0.21451162 0.12270104 0.6026041 -0.014935608
-0.329534 0.09323689 0.047808204 0.07302109 0.4372068 0.051817786 -0.09722116 -0.112232864
0.009958061 -0.3592433 -0.15836069 0.2701712 -0.2327485 -0.15126137 -0.3221348 -0.029862788
-0.043644015 0.15570113 0.05541565 0.38402063 -0.21624792 0.32659408 -0.20900802 -0.2507973
-0.28263614 0.015657032 -0.26950043 0.38629624 0.25126803 -0.13603339 0.18227753 0.07247769
-0.056725997 -0.38162303 0.30953625 0.48920682 0.011167465 -0.18190987 0.2954526 0.31924757
-0.38813016 -0.56643987 0.09171108 -0.14451489 0.05766629 -0.33617657 0.12076064 -0.25541288
-0.43663302 -0.22607714 0.13078408 -0.04819935 -0.24961102 0.08237543 -0.18784826 -0.29945648
-0.064423844 0.19688733 -0.27296522 0.11856806 0.04628969 0.26878896 -0.28062248 0.05648382
-0.20705506 0.5110892 0.114180066 0.08760859 -0.5501813 0.16100526 -0.13499795 0.12615146
00000000: df71 403e 5218 b5be 9d31 25be 6d50 133e
00000010: f9fa 34be 0620 2fbe d6ce 4c3d 2daa 853d
00000020: b883 b9be bc0b 883b f68a 993d 11de 0bbe
00000030: 9075 b2be 90d0 b0bd 228e 763d 6baf 9ebe
00000040: e7b7 4fbe 7479 a1be a886 88be 6ce0 8dbe
00000050: 1773 9abd b70c 693e a075 4f3d 9d13 de3d
00000060: 2cb6 acbe a29e 16bf 7b52 a23e 04b3 99be
00000070: 7df0 dc3d 4477 463e a77b 02be 772f fbbd
00000080: c3e6 933c 5cc6 cd3e e2e6 9b3d 4544 55be
00000090: 7e99 303e 576e b83c 3c27 b93e c3c6 8a3d
000000a0: 3d87 04bd 1433 9f3d ad08 0f3e 2e95 cbbe
000000b0: 580c c13c 6509 f4be 47cb 8abe 329d d7be
000000c0: bbf8 81be c477 fdbd 9a79 c4be 6dc6 e0be
000000d0: 7882 54be 188c 9cbd 960f e2bd f578 87be
000000e0: 1a24 eabd 34ba c0bd 2b60 d93c 4a7b 2b3f
000000f0: 7cc1 87bd 0cc8 64be 5bb1 f93e 9f55 a3be
00000100: f908 af3e 396b 423d bf65 01bf 51f7 4abe
00000110: 306a c2be 5b9f 013f c6f4 d9be f6b6 5cbd
00000120: f445 f83d 4663 1bbe 0627 fdbe e7d5 9bbe
00000130: 33d5 c93e a623 aabe d596 0cbd 705d 2d3e
00000140: 76f3 ebbe 9ca4 983c 3109 95be a100 4c3e
00000150: 00a1 1f3e 7d22 15bd 363b b1be f22f c93e
00000160: c52e c9bf 35a0 afbe 288e 3bbe bcf1 a53e
00000170: 00e8 3b3e 6c85 e33d 115d c13e 0743 213e
00000180: b154 593d ad53 4d3e 81d8 043e 0d6d c4bd
00000190: 6187 0cbe 63c6 91be 2b51 e7bd 7086 dcbe
000001a0: 7b2e 893e 464e 33be 1a57 79be eac0 133e
000001b0: 0476 503f 9a58 3f3e 80f3 b3bd 45db 94be
000001c0: 163a a23b f8a7 68be 7386 1fbf 6be8 063e
000001d0: 459f 6c3e fe4c 9ebe c2f2 893e 32af 6abe
000001e0: 5fa4 8cbd 29c9 b23c 91d4 a43c c328 85be
000001f0: e06e 9a3e eb99 103e 40ec 44bd b3e2 923e
00000200: da09 2c3e 3350 323e 5f1f d93e ef60 97be
00000210: 0c36 573e e0a5 c93e 8466 76be 49cc d7bd
00000220: d397 c2bd 995d 93bd 71ad 813e d885 27be
00000230: a56e bb3e 705c 76be 9632 ca3e 9aa5 833e
00000240: 83aa 07be 8cee 4fbe 78c0 813d d405 9b3e
00000250: b895 033e 06e8 81be d22d 8e3e c153 4cbb
00000260: cfb7 81bc 8ba5 73be 4a82 613e 4bcf 88bd
00000270: 0a46 b93e d3a8 23be ab28 3cbe 2306 a5be
00000280: fbb7 52be 3335 25be 563b d8be 1834 0bbd
00000290: 78b5 f2bd 9873 423d 07e4 d9be 15b8 90be
000002a0: 8e86 1d3e 552b 9cbe 0b3b c7be 0a78 d63d
000002b0: 99ac 683d b57e bd3d fe5e 1cbe 9269 98be
000002c0: 6132 c0be 8032 93be 4dc9 933e ac98 af3e
000002d0: efa8 5bbe af4a fb3d 4344 1a3f 7bb4 74bc
000002e0: aeb8 a8be fcf2 be3d 89d2 433d 158c 953d
000002f0: 92d9 df3e e33e 543d e31b c7bd 58da e5bd
00000300: 2327 233c bdee b7be 4e29 22be e153 8a3e
00000310: 9f55 6ebe 43e4 1abe daee a4be cea2 f4bc
00000320: 11c4 32bd 1e70 1f3e 85fb 623d 5a9e c43e
00000330: 1870 5dbe 5737 a73e 3306 56be 8168 80be
00000340: afb5 90be 2d43 803c f6fb 89be 9fc8 c53e
00000350: 34a6 803e 564c 0bbe f6a6 3a3e 2f6f 943d
00000360: 8559 68bd 1864 c3be 897b 9e3e 5179 fa3e
00000370: bef7 363c 9546 3abe 9045 973e 6b74 a33e
00000380: ffb8 c6be 3402 11bf 05d3 bb3d b6fb 13be
00000390: 7d33 6c3d 561f acbe 5b51 f73d 7ac5 82be
000003a0: 5d8e dfbe c480 67be 43ec 053e ae6c 45bd
000003b0: 089a 7fbe 73b4 a83d 4b5b 40be 5c52 99be
000003c0: a6f0 83bd d59c 493e 19c2 8bbe d0d3 f23d
000003d0: 429a 3d3d b59e 893e c0ad 8fbe 945b 673d
000003e0: 3e06 54be bed6 023f 3dd7 e93d 226c b33d
000003f0: afd8 0cbf 90de 243e e73c 0abe d92d 013e

layers.2.weight f4 [128, 256]
-0.12288075 0.015478072 0.024891965 0.10012708 -0.0990169 -0.012529361 -0.14185113 0.12382531
-0.036457084 -0.06727095 -0.06852855 0.055163387 0.03619224 0.24491401 -0.24806525 -0.009641743
-0.049793247 0.037002634 0.038042653 0.050026186 -0.14481136 -0.03547706 0.038883425 5.445414e-05
0.034451235 -0.004216609 -0.32148406 0.056833513 0.026863664 0.08386545 -0.010192718 0.007972325
-0.19350727 -0.07385432 0.03806941 -0.030778179 -0.09237295 -0.03194359 0.0075529716 0.0049464563
0.016843213 -0.0032623594 0.080939524 0.1324289 0.052148387 -0.0027878936 -0.1489687 -0.016529955
0.16073956 0.018566627 -0.01640599 0.106581435 -0.016199842 -0.027101578 0.082697034 -0.060090687
0.012574274 0.0128872795 -0.09905064 -0.10793384 0.056326024 0.07616252 -0.07701471 -0.01732224
0.040743165 -0.08006499 -0.036024082 0.13546832 -0.039034814 -0.0690859 0.041956592 -0.1253716
0.0258431 -0.079445176 -0.010754928 -0.0717151 -0.027134169 -0.06980482 0.09457937 -0.12242096
-0.026037088 -0.041678257 -0.07196158 0.062124185 -0.055382244 0.05250314 -0.003212001 -0.030329164
0.10152788 0.053823728 -0.0832583 -0.07701636 0.07336317 0.032194152 -0.1419904 -0.18148842
0.0814191 -0.08479182 -0.60923165 0.03794671 0.09834813 -0.0010424987 0.05583074 0.008738156
-0.2596547 -0.034611672 -0.27003282 -0.07197875 0.010474293 -0.050263498 -0.002052046 0.010562344
-0.00035703788 -0.06279404 -0.08301729 -0.039150096 -0.31347042 -0.24384634 -0.021930953 -0.058135685
0.047219664 0.072344884 0.03030533 -0.07381335 -0.07685852 -0.0738377 -0.011126153 0.05566633
-0.074251115 0.027145622 0.039648287 -0.016838878 -0.21818157 0.04850089 -0.10747658 0.01423256
0.016564704 -0.1625824 -0.0022939965 0.028698187 0.055914994 -0.18144967 -0.030510232 -0.30313504
0.008552847 -0.06325294 0.039045315 0.041249856 -0.023210408 -0.04572234 0.0062197517 0.014563656
0.028010314 0.0051241014 -0.07127358 -0.058549087 -0.15820538 -0.21029752 0.12961014 0.20334029
0.030777123 0.029163975 -0.10960663 0.06168503 0.13222486 -0.039776154 0.010121865 -0.044094607
0.057135876 0.013566488 0.008024392 0.026889216 -0.05626117 0.0046536205 0.011817141 0.018661894
0.01844125 0.06628832 -0.047062024 -0.067619346 0.025744213 -0.002124462 -0.16409047 -0.46354395
0.06997679 0.06562921 -0.020652158 -0.07718244 -0.10607847 0.024929592 -0.39219776 -0.16394056
-0.058821045 -0.011998509 0.07950037 -0.010890429 -0.01576056 0.106451035 0.04785177 0.2500703
-0.09405006 -0.043954603 0.016308228 -0.16434172 0.07954696 0.068832636 0.049506348 0.0354932
-0.20090911 0.010661955 0.059523765 -0.06381094 -0.14673744 -0.34471813 0.03699846 0.055324268
0.012250142 -0.009871585 -0.17837659 -0.19245633 -0.17734896 0.028328491 -0.11961992 0.01575581
-0.0009466713 0.14525633 -0.020420132 0.033004668 0.009034758 0.18089776 0.06746393 0.033457216
-0.002387937 -0.0013464023 0.036739822 -0.1937312 0.07605074 -0.024284758 -0.0026657586 0.073119625
0.11352184 -0.117641024 0.017148655 -0.081645094 -0.089287974 0.0076341857 0.110055156 -0.036258895
0.13343342 -0.15173288 -0.014713448 0.037614875 0.037527565 -0.0053868894 0.011637697 -0.0076630223
00000000: e7a8 fbbd bd97 7d3c 3cea cb3c 6d0f cd3d
00000010: 5fc9 cabd f347 4dbc 6c41 11be 2098 fd3d
00000020: 0654 15bd 5ac5 89bd b258 8cbd 01f3 613d
00000030: 503e 143d bdca 7a3e d104 7ebe 67f8 1dbc
00000040: 01f4 4bbd 1390 173d 9dd2 1b3d 42e8 4c3d
00000050: 6e49 14be 6550 11bd 3a44 1f3d b065 6438
00000060: bd1c 0d3d 7b2b 8abb 8f99 a4be 42ca 683d
00000070: 3011 dc3c a6c1 ab3d 5cff 26bc 5b9e 023c
00000080: c526 46be ef40 97bd abee 1b3d 8522 fcbc
00000090: 072e bdbd 48d7 02bd eb7e f73b e215 a23b
000000a0: c7fa 893c 4fcd 55bb 9fc3 a53d 719b 073e
000000b0: 8c99 553d 18b5 36bb 408b 18be d469 87bc
000000c0: e998 243e 0a19 983c db65 86bc 5e47 da3d
000000d0: 88b5 84bc 2104 debc 105d a93d a721 76bd
000000e0: 5404 4e3c 2b25 533c 10db cabd 6b0c ddbd
000000f0: 1eb6 663d 18fb 9b3d e3b9 9dbd 5fe7 8dbc
00000100: 4ee2 263d 1df9 a3bd fd8d 13bd 35b8 0a3e
00000110: f8e2 1fbd e97c 8dbd adda 2b3d 6a61 00be
00000120: e9b4 d33c 27b4 a2bd 7035 30bc 5edf 92bd
00000130: 7a48 debc d4f5 8ebd d4b2 c13d d7b7 fabd
00000140: bb4b d5bc d2b6 2abd 9860 93bd ee75 7e3d
00000150: 7ed8 62bd 880d 573d 6f80 52bb de74 f8bc
00000160: d9ed cf3d 4576 5c3d 5483 aabd c1ba 9dbd
00000170: 6e3f 963d 04de 033d ee65 11be 1ad8 39be
00000180: 0fbf a63d 55a7 adbd 9bf6 1bbf 026e 1b3d
00000190: bf6a c93d 74a4 88ba c6ae 643d 7c2a 0f3c
000001a0: 76f1 84be f8c4 0dbd be41 8abe 9869 93bd
000001b0: 5e9c 2b3c 19e1 4dbd 9e7b 06bb af0d 2d3c
000001c0: d030 bbb9 299a 80bd f804 aabd da5b 20bd
000001d0: 327f a0be dbb2 79be 8ba8 b3bc af1f 6ebd
000001e0: 6869 413d 8e29 943d e242 f83c 742b 97bd
000001f0: 0068 9dbd 3838 97bd 784a 36bc 6102 643d
00000200: f810 98bd 7f60 de3c 3e66 223d b0f1 89bc
00000210: fd6a 5fbe dfa8 463d ae1c dcbd af2f 693c
00000220: b4b2 873c 007c 26be e056 16bb 7618 eb3c
00000230: 1f07 653d f1cd 39be 98f0 f9bc 8434 9bbe
00000240: 3e21 0c3c c28a 81bd fbed 1f3d 9cf5 283d
00000250: c123 bebc 5947 3bbd 0fcf cb3b 679c 6e3c
00000260: e375 e53c 14e8 a73b e2f7 91bd 2bd1 6fbd
00000270: 9700 22be 3c58 57be 85b8 043e 7038 503e
00000280: 4e20 fc3c 4ae9 ee3c 7179 e0bd 71a9 7c3d
00000290: f465 073e 52ec 22bd 2ed6 253c 8c9c 34bd
000002a0: 4f07 6a3d fa45 5e3c bd78 033c c646 dc3c
000002b0: 1d72 66bd 667d 983b af9c 413c d4e0 983c
000002c0: 1b12 973c 2cc2 873d 1cc4 40bd 037c 8abd
000002d0: 87e5 d23c 8f3a 0bbb 5507 28be a255 edbe
000002e0: fe4f 8f3d 9b68 863d b72e a9bc d411 9ebd
000002f0: ab3f d9bd 2539 cc3c 25ce c8be 09e0 27be
00000300: 56ee 70bd 6595 44bc 17d1 a23d c56d 32bc
00000310: 4a1c 81bc 0003 da3d 3800 443d 3709 803e
00000320: 519d c0bd be09 34bd d598 853c 3249 28be
00000330: 84e9 a23d 20f8 8c3d 2bc7 4a3d 5161 113d
00000340: 1ebb 4dbe 7baf 2e3c 31cf 733d 4faf 82bd
00000350: 5742 16be e57e b0be b28b 173d b39b 623d
00000360: d2b4 483c 6ebc 21bc 5aa8 36be 4613 45be
00000370: f79a 35be 2711 e83c 4afb f4bd 5412 813c
00000380: 092a 78ba 13be 143e 1f48 a7bc e72f 073d
00000390: 8606 143c 433d 393e 872a 8a3d 6f0a 093d
000003a0: ef7e 1cbb c479 b0ba 7f7c 163d 7961 46be
000003b0: 7ec0 9b3d d4f0 c6bc 02b4 2ebb bebf 953d
000003c0: 237e e83d c7ed f0bd 567b 8c3c 8b35 a7bd
000003d0: 9ddc b6bd 3128 fa3b 9964 e13d 3584 14bd
000003e0: c5a2 083e dd5f 1bbe ac10 71bc 0e12 1a3d
000003f0: 81b6 193d 8184 b0bb 0aac 3e3c 171a fbbb

layers.2.bias f4 [128]
0.18401049 0.1799731 -0.21511559 0.19455092 0.071634956 -0.1488055 0.11454033 0.38440362
0.4592038 0.12614375 0.12777688 -0.065431245 0.453841 -0.1310708 0.07247321 0.22831365
0.15806907 0.19540855 0.1712731 -0.07253765 -0.034997918 -0.068183534 0.501023 0.098405786
0.14889747 0.48108023 -0.028928028 0.02856623 0.022774303 0.19086015 -0.19466685 0.2756208
-0.20367 0.32961467 0.06548553 0.3159204 0.054138962 -0.06645308 0.03237434 0.1288579
-0.004448391 0.27279308 -0.041334648 0.22860323 0.036992066 0.019777361 0.12018798 -0.34237367
0.19276229 -0.10046764 0.21320568 0.030433116 0.19898768 0.2471279 0.18270512 0.072623126
-0.09938747 0.19146298 0.038632374 -0.08883483 -0.09194862 0.018007489 0.2015972 -0.052587256
-1.3952377 -0.15612675 0.16552275 -0.04328519 -0.088114835 0.14503254 0.34507972 0.01099716
0.23364119 0.047869626 0.101553686 0.47952828 0.00018035372 0.039058924 0.32219467 0.07799521
0.19972304 0.31289518 0.21818134 0.07717016 -0.3133716 0.11959445 -0.061709933 0.24278255
-0.048860602 -0.13178003 0.27613 -0.19045436 0.069083564 0.25917774 0.053005893 0.10647887
0.45454204 -0.041001894 0.25376475 0.18381718 -0.09491068 -0.14185739 -0.005564512 0.18536927
0.20120247 0.1154276 -0.12627967 -0.11725561 -0.0074522453 0.30036157 0.04804744 0.04705676
-0.059748694 0.5835596 -0.10819414 0.13942552 0.04511595 0.039524328 0.401544 0.12091573
-0.0532546 0.13647395 0.10440561 -0.040852908 0.028363401 -0.017373256 -0.089215115 0.22219856
00000000: 3f6d 3c3e de4a 383e 4347 5cbe 5b38 473e
00000010: 59b5 923d 7860 18be 1f94 ea3d 8dd0 c43e
00000020: c31c eb3e d42b 013e f1d7 023e d100 86bd
00000030: d95d e83e 6c37 06be d66c 943d 0ecb 693e
00000040: dcdc 213e 2e19 483e 3762 2f3e 9f8e 94bd
00000050: fa59 0fbd cfa3 8bbd 0b43 003f f988 c93d
00000060: 9478 183e 2650 f63e 79fa ecbc ba03 ea3c
00000070: 2d91 ba3c d870 433e bf56 47be 2b1e 8d3e
00000080: de8e 50be 41c3 a83e 471d 863d 52c0 a13e
00000090: d1c0 5d3d 8d18 88bd f59a 043d 53f3 033e
000000a0: cfc3 91bb 89ab 8b3e 854e 29bd f716 6a3e
000000b0: fe84 173d 2204 a23c 1e25 f63d 9a4b afbe
000000c0: 7a63 453e fac1 cdbd 9752 5a3e df4e f93c
000000d0: 6dc3 4b3e 190f 7d3e 0d17 3b3e 6fbb 943d
000000e0: a88b cbbd df0e 443e fb3c 1e3d 09ef b5bd
000000f0: 8f4f bcbd 7184 933c 7f6f 4e3e bc65 57bd
00000100: 2697 b2bf b1df 1fbe cc7e 293e d04b 31bd
00000110: 8d75 b4bd 6983 143e 4aae b03e 6f2d 343c
00000120: a33f 6f3e f112 443d 61fb cf3d bb84 f53e
00000130: 551d 3d39 40fc 1f3d b3f6 a43e f4bb 9f3d
00000140: 3284 4c3e cc33 a03e ee6a 5f3e 640b 9e3d
00000150: 3e72 a0be efed f43d 8ec3 7cbd fd9b 783e
00000160: 0e22 48bd 58f1 06be e960 8d3e 7806 43be
00000170: af7b 8d3d f2b2 843e b51c 593d 9811 da3d
00000180: bcb9 e83e 9af1 27bd 74ed 813e 923a 3c3e
00000190: 8860 c2bd 1043 11be 8356 b6bb 71d1 3d3e
000001a0: 0508 4e3e 4e65 ec3d 754f 01be b623 f0bd
000001b0: f731 f4bb fec8 993e 64cd 443d 97be 403d
000001c0: 0cbb 74bd 2964 153f e494 ddbd 90c5 0e3e
000001d0: 81cb 383d 43e4 213d 2d97 cd3e aba2 f73d
000001e0: 7f21 5abd d4bf 0b3e 9cd2 d53d 6155 27bd
000001f0: 5d5a e83c 5c52 8ebc 6ab6 b6bd 0588 633e

layers.4.weight f4 [64, 128]
0.12569715 -0.10719029 0.012664127 -0.0094825085 -0.0864984 -0.14321463 0.12702231 0.005736849
0.08537784 0.07260925 0.03272671 0.01691587 0.117926955 0.023899112 -0.032807793 -0.056239773
0.09164234 0.0025856693 0.01626279 0.09116639 -0.23190585 -0.021464488 -0.077504516 0.08507833
-0.11305345 0.02801949 0.034926783 0.025857648 -0.03190168 0.006155865 0.036750134 -0.03869784
0.031238507 -0.04012441 -0.028472325 0.011885412 0.09600648 0.058626063 0.09791209 0.03501861
0.1862478 0.036619827 -0.06422824 0.031382546 -0.028409895 -0.04691628 -0.07153998 0.032642808
0.043853413 0.029927405 -0.03360047 -0.023006754 0.028139375 -0.11127954 -0.034306996 -0.07184132
0.018604793 0.012363881 0.03869004 -0.15806083 0.0067654178 -0.064592734 0.006066709 0.0391355
-0.0123283295 0.12206369 -0.043636326 -0.09106732 -0.024251102 -0.13368803 -0.028786544 0.102498144
0.031312313 0.008161048 -0.026470328 0.05499717 0.15870447 -0.045204625 0.0045632212 0.034839127
0.086843304 0.033663254 -0.16364436 -0.13237199 0.008731186 0.10428038 -0.06475337 0.015050103
0.074760266 -0.029561222 0.003568814 -0.25454283 -0.06021138 -0.026413105 0.042203538 -0.00594691
0.16537061 -0.04743318 0.0070728846 0.02953784 -0.026736459 -0.09429275 -0.082684346 0.012291203
-0.02517691 0.005882108 0.09505606 -0.08923987 -0.014817445 0.081866965 0.0040910332 0.047200188
-0.14104278 0.1583363 0.010158616 0.07864448 -0.04121732 -0.031999603 0.013851105 0.0044821906
-0.030038511 0.04203804 -0.022142058 0.10205557 0.03506562 0.024634324 -0.027337339 0.016273934
0.09365126 0.108776435 -0.10487378 -0.03619954 -0.007973358 0.031616032 -0.058670953 -0.06453755
-0.082175724 0.14374062 0.025076073 0.023286348 -0.023744794 -0.1212417 -0.085104 0.038156673
-0.039757814 0.06848998 -0.03271236 -0.033398964 0.10346425 0.07259888 0.06250593 0.055637326
0.12224747 0.11087472 -0.12911905 -0.055761654 0.056439176 -0.010705006 0.08678465 0.07788693
-0.02959032 0.07079964 0.003621059 0.011969478 -0.019354748 -0.028351426 0.038353536 -0.08283671
0.0535976 -0.082420476 -0.017895427 -0.048536275 0.031025006 -0.060266204 0.078900084 -0.043026604
0.119319364 -0.03552845 -0.010840821 -0.029943828 -0.0048154905 -0.038182855 0.08724143 -0.03595046
0.24491028 0.042230185 0.021088194 0.028532526 -0.155576 -0.0033536754 0.06776093 -0.058293752
-0.016607035 0.024911812 0.041856363 0.010298794 -0.0050630835 0.051536858 0.071222946 0.10978825
0.0036455507 -0.028779265 0.009412135 0.0920263 -0.050292477 0.003504636 -0.008682703 0.0030076404
0.06883928 0.20170237 0.04062488 0.051162366 -0.0462366 0.07134771 0.01099893 0.03577241
0.04990581 0.011210073 0.034507465 -0.21367493 -0.18729746 0.0071372986 -0.044352215 0.09497014
-0.06933295 -0.038525786 -0.102024294 0.045681454 0.06929283 -0.1494273 0.05564953 0.05752317
-0.08062469 0.120001934 -0.025038285 -0.30017242 0.15451126 -0.029068852 0.021228565 0.057035618
0.044550344 0.036958758 0.01460598 0.060320478 0.15477861 0.022482358 0.022412006 0.005919518
0.031008085 -0.0072142356 0.042060748 0.055447318 0.081378445 -0.06424319 -0.026018234 0.084235325
00000000: c1b6 003e 9586 dbbd 337d 4f3c 865c 1bbc
00000010: 1326 b1bd dba6 12be 2312 023e 2dfc bb3b
00000020: 94da ae3d 29b4 943d 710c 063d 2793 8a3c
00000030: b083 f13d 12c8 c33c 7761 06bd ad5b 66bd
00000040: fbae bb3d 5574 293b 8b39 853c 72b5 ba3d
00000050: ba78 6dbe 4bd6 afbc b0ba 9ebd 8c3d ae3d
00000060: 9188 e7bd 2189 e53c 630f 0f3d 6bd3 d33c
00000070: 56ab 02bd 23b7 c93b 4f87 163d a081 1ebd
00000080: e6e7 ff3c 7e59 24bd cb3e e9bc 08bb 423c
00000090: 0c9f c43d e221 703d 2286 c83d ad6f 0f3d
000000a0: beb7 3e3e acfe 153d 188a 83bd fc8a 003d
000000b0: debb e8bc 492b 40bd 8e83 92bd 77b4 053d
000000c0: a39f 333d 512a f53c a5a0 09bd a978 bcbc
000000d0: 8c84 e63c 87e6 e3bd 7e85 0cbd 8b21 93bd
000000e0: 1469 983c e091 4a3c 7379 1e3d b3da 21be
000000f0: 70b0 dd3b 3249 84bd 3ecb c63b 8c4c 203d
00000100: c3fc 49bc 87fc f93d 01bc 32bd 8181 babd
00000110: 3faa c6bc 84e5 08be c2d1 ebbc 8cea d13d
00000120: 5741 003d ebb5 053c 4dd8 d8bc b644 613d
00000130: 6d83 223e 7c28 39bd 1387 953b 79b3 0e3d
00000140: e7da b13d 7be2 093d 6392 27be 868c 07be
00000150: 400d 0f3c f490 d53d 6a9d 84bd b594 763c
00000160: e91b 993d 602a f2bc c3e2 693b 7053 82be
00000170: 35a0 76bd 4c60 d8bc 9edd 2c3d 4cde c2bb
00000180: ea56 293e 4b49 42bd a8c3 e73b 57f9 f13c
00000190: 6b06 dbbc 8f1c c1bd 6956 a9bd 0b61 493c
000001a0: cf3f cebc b3be c03b c0ac c23d 65c3 b6bd
000001b0: dec4 72bc dea9 a73d 130e 863b fc54 413d
000001c0: 856d 10be e922 223e 5370 263c 5b10 a13d
000001d0: 7ed3 28bd 0412 03bd bfef 623c 57df 923b
000001e0: 5313 f6bc 1430 2c3d 4363 b5bc 8302 d13d
000001f0: f8a0 0f3d eccd c93c 8ef2 dfbc ea50 853c
00000200: 3bcc bf3d 2ec6 de3d 10c8 d6bd f845 14bd
00000210: b0a2 02bc d07f 013d f450 70bd 432c 84bd
00000220: bf4b a8bd be30 133e 566c cd3c 03c3 be3c
00000230: 7184 c2bc 924d f8bd 024b aebd 2c4a 1c3d
00000240: 17d9 22bd 7a44 8c3d 65fd 05bd 5acd 08bd
00000250: 11e5 d33d b9ae 943d 1c03 803d f7e3 633d
00000260: e25c fa3d 4912 e33d c937 04be 5566 64bd
00000270: c42c 673d 0d64 2fbc 27bc b13d 2f83 9f3d
00000280: 6667 f2bc 67ff 903d 4a4f 6d3b a11b 443c
00000290: d98d 9ebc 4041 e8bc 9918 1d3d 4ba6 a9bd
000002a0: 2889 5b3d 11cc a8bd 6e99 92bc f9cd 46bd
000002b0: 2728 fe3c b2d9 76bd 5e96 a13d aa3c 30bd
000002c0: b65d f43d 4886 11bd b39d 31bc c24c f5bc
000002d0: 43cb 9dbb a065 1cbd a3ab b23d ca40 13bd
000002e0: c3c9 7a3e 8ff9 2c3d 26c1 ac3c 0bbd e93c
000002f0: 514f 1fbe 56c9 5bbb 3ec6 8a3d 6ec5 6ebd
00000300: 7a0b 88bc db13 cc3c 9471 2b3d 46bc 283c
00000310: 39e8 a5bb 5018 533d 56dd 913d a9d8 e03d
00000320: 31ea 6e3b 7ec2 ebbc 5b35 1a3c 4978 bc3d
00000330: 7cff 4dbd 09ae 653b e541 0ebc d51b 453b
00000340: 9cfb 8c3d 118b 4e3e 4666 263d a18f 513d
00000350: 9762 3dbd c01e 923d db34 343c 1786 123d
00000360: 096a 4c3d 74aa 373c b357 0d3d 9acd 5abe
00000370: e8ca 3fbe 00e0 e93b abaa 35bd b47f c23d
00000380: 6ffe 8dbd 37cd 1dbd 1df2 d0bd 7a1c 3b3d
00000390: 66e9 8d3d 7803 19be c3f0 633d 6a9d 6b3d
000003a0: 8f1e a5bd 93c3 f53d 171d cdbc 33b0 99be
000003b0: 3338 1e3e cd21 eebc 87e7 ad3c 2e9e 693d
000003c0: 6c7a 363d 1162 173d ec4d 6f3c 9b12 773d
000003d0: 497e 1e3e ec2c b83c 6299 b73c 84f8 c13b
000003e0: ab04 fe3c 6565 ecbb e447 2c3d ba1c 633d
000003f0: bea9 a63d ef91 83bd 3124 d5bc 9283 ac3d

layers.4.bias f4 [64]
0.3787349 0.4878007 -0.23995645 0.18953988 0.25825486 0.43682197 -0.21690285 0.27415505
0.30529594 -0.07885314 -0.61649156 -0.10967065 0.33707315 0.5135568 0.18490265 -0.084665835
0.02158027 0.20307985 0.23720548 0.5642473 0.06750941 0.4001808 0.4545237 0.68557405
0.14357397 1.0064293 -0.2501311 -0.29224482 0.2528905 -1.0021861 -0.47104603 -0.2909965
0.050842457 0.28642964 -0.04970012 0.13655773 0.42043298 0.3961594 0.59958375 -0.093162425
-0.052469898 0.14222355 0.6735711 -0.060620453 0.16765346 -0.7865758 0.06915519 0.67184556
0.35975903 0.5270552 0.20461988 0.05160231 -0.018941632 0.4698204 -0.116589434 -0.16023341
0.39186445 0.015925435 0.24101274 0.055520654 0.35764566 0.04233512 0.0072123497 0.17161848
00000000: 8ae9 c13e 03c1 f93e 25b7 75be be16 423e
00000010: fb39 843e 21a7 df3e c81b 5ebe 0d5e 8c3e
00000020: c04f 9c3e c17d a1bd 64d2 1dbf 019b e0bd
00000030: da94 ac3e 7578 033f 1f57 3d3e 4865 adbd
00000040: 1bc9 b03c 2af4 4f3e fee5 723e 8372 103f
00000050: 6042 8a3d 7fe4 cc3e 55b7 e83e c881 2f3f
00000060: 0e05 133e add2 803f 2f11 80be 1da1 95be
00000070: dd7a 813e a247 80bf f22c f1be 7efd 94be
00000080: 2e40 503d e8a6 923e 5a92 4bbd cad5 0b3e
00000090: fe42 d73e 68d5 ca3e 527e 193f f1cb bebd
000000a0: adea 56bd 0da3 113e 286f 2c3f 274d 78bd
000000b0: 59ad 2b3e 085d 49bf 3ca1 8d3d 12fe 2b3f
000000c0: 5632 b83e 17ed 063f e087 513e f25c 533d
000000d0: 7b2b 9bbc 4d8c f03e 71c6 eebd 3a14 24be
000000e0: 75a2 c83e 0f76 823c 0bcc 763e a069 633d
000000f0: 551d b73e 9767 2d3d 9355 ec3b c1bc 2f3e

layers.6.weight f4 [32, 64]
-0.00481382 0.035135202 0.019522263 0.020304732 0.04024307 -0.073587894 -0.0021486457 0.07010679
-0.063064896 0.058278445 0.04925897 -0.02628674 -0.0038820338 -0.08548511 0.074160665 0.24550408
0.039400004 0.13811842 -0.031365637 -0.07638547 0.06547024 -0.0047440077 -0.045337904 0.08072253
0.05810396 0.18265045 -0.0015584534 0.022771295 -0.04870395 -0.120843746 -0.037640255 -0.06123324
0.047294617 -0.014750882 0.01237009 -0.040547855 0.045714315 -0.06348538 -0.121546574 -0.0693961
0.012476153 0.028699666 -0.038502865 -0.03524036 0.006881027 0.044168435 0.0027149399 0.09034726
0.0075844196 -0.027508805 -0.05340083 -0.063407145 0.1026273 0.074760646 0.066477075 -0.022156013
-0.12608127 0.032754887 0.0059878523 -0.068258666 -0.0963513 -0.060129274 -0.07972083 -0.03940162
0.07657986 0.06659922 -0.041404705 -0.013766506 -0.14482144 0.02613271 -0.009949387 -0.049868755
-0.048869807 0.019103719 -0.09782529 -0.02777188 -0.020484505 0.052568953 0.016861908 -0.3093536
0.013019499 0.06456852 0.19442464 0.07994964 -0.004567957 0.05119003 0.10854267 0.051422626
0.040918022 0.074147426 -0.11153038 -0.017826503 -0.02404602 -0.1201071 -0.025426114 0.026954241
-0.14825726 -0.03779452 -0.021139719 -0.20890652 -0.049698886 0.10664566 -0.021108935 -0.04924988
0.12498497 -0.06363064 0.012779065 -0.04957912 -0.05455871 -0.041284323 0.014548312 0.13052808
-0.03335121 -0.0048687854 0.16175258 0.048682213 0.17744479 0.050353106 -0.07117589 -0.30927908
0.076107375 -0.017454954 0.35940728 0.08037992 0.016993666 0.0421629 -0.06983689 -0.1160513
-0.09918764 0.05764486 -0.08666773 0.0054529454 0.048809968 0.05076426 -0.046156578 -0.105793945
0.021601696 -0.035111018 0.056059346 0.09343909 0.049975313 0.054746713 -0.17773497 -0.012244284
-0.0076829195 0.09529016 0.061679564 -0.12049786 0.051269114 -0.023040485 0.05401826 -0.01840491
-0.006530766 0.18114808 -0.018825764 0.11633867 -0.31611204 -0.057696417 -0.050139576 -0.28103212
0.045697123 0.054107282 -0.10714397 -0.1401978 -0.03757256 0.07509523 -0.19306591 0.022171943
0.0067819823 -0.12474136 0.0687545 0.010718018 0.05750701 -0.091922045 0.34781516 -0.3026723
-0.077971525 -0.022147113 -0.075469 0.11138121 0.008777976 0.00012317847 0.028643042 -0.14028724
0.07657437 0.0068851537 0.039223727 -0.0610594 -0.2776422 -0.041373562 -0.2005171 -0.0478328
0.020552551 -0.18575312 -0.20146035 -0.016828898 -0.114271484 -0.0079689035 -0.07215784 0.004043817
-0.003837127 0.03898858 -0.10459908 -0.059111536 0.027171034 0.01937255 -0.1148894 -0.1061636
-0.099662855 -0.66895723 0.03975734 0.045634758 0.004243161 -0.08327784 0.062765606 0.036825694
-0.02075814 0.07675902 0.07113167 -0.07473672 0.063174725 -0.17236376 -0.010919393 -0.060501073
-0.56737196 0.004763791 0.17345892 -0.024388896 -0.46458417 0.08990897 0.120644726 -0.0042117545
-0.36177018 -0.0032809502 0.008326052 0.03614256 -0.06144303 -0.060398404 -0.28848097 -0.13776325
-0.019927416 0.039714236 -0.23215736 0.25279525 0.4007183 -0.10877528 0.117857814 -0.06388083
-0.28523913 -0.030928582 0.15325291 0.023812119 0.12157862 -0.11884873 0.0011550375 0.18710162
00000000: 40bd 9dbb eee9 0f3d 27ed 9f3c 1c56 a63c
00000010: ebd5 243d 40b5 96bd 4bd0 0cbb 2694 8f3d
00000020: 2b28 81bd 61b5 6e3d c6c3 493d 4a57 d7bc
00000030: b869 7ebb d112 afbd 8ce1 973d 6c65 7b3e
00000040: e661 213d ea6e 0d3e 4179 00bd fc6f 9cbd
00000050: 4315 863d 9f73 9bbb 3db4 39bd db51 a53d
00000060: 6bfe 6d3d b808 3b3e 0545 ccba de8a ba3c
00000070: cb7d 47bd ed7c f7bd ab2c 1abd b5cf 7abd
00000080: 00b8 413d afad 71bc ebab 4a3c 8215 26bd
00000090: ef3e 3b3d 9f04 82bd 69ed f8bd 8b1f 8ebd
000000a0: c768 4c3c 901b eb3c 2eb5 1dbd 3258 10bd
000000b0: 3d7a e13b f6e9 343d 22ed 313b fc07 b93d
000000c0: b986 f83b 255a e1bc d4ba 5abd 9bdb 81bd
000000d0: 432e d23d 1c1c 993d 2225 883d 8780 b5bc
000000e0: 731b 01be fd29 063d bf35 c43b 33cb 8bbd
000000f0: d553 c5bd 1d4a 76bd ad44 a3bd 9863 21bd
00000100: e7d5 9c3d 2c65 883d fb97 29bd e98c 61bc
00000110: 124c 14be 4414 d63c c102 23bc 2e43 4cbd
00000120: b52b 48bd 677f 9c3c a058 c8bd db81 e3bc
00000130: 1fcf a7bc 8b52 573d fc21 8a3c 9863 9ebe
00000140: bd4f 553c 803c 843d 4117 473e a3bc a33d
00000150: cdae 95bb a3ac 513d 9f4b de3d 88a0 523d
00000160: a899 273d 9bda 973d 0a6a e4bd e308 92bc
00000170: 29fc c4bc b6fa f5bd 6d4a d0bc 24cf dc3c
00000180: c0d0 17be 6dce 1abd 342d adbc 97eb 55be
00000190: 0f91 4bbd 0a69 da3d a5ec acbc 3eba 49bd
000001a0: 1ff8 ff3d c850 82bd 495f 513c 7a13 4bbd
000001b0: f478 5fbd c019 29bd 0b5c 6e3c 27a9 053e
000001c0: 479b 08bd 558a 9fbb 78a2 253e 0067 473d
000001d0: 16b4 353e 0f3f 4e3d aac4 91bd d459 9ebe
000001e0: 2fde 9b3d b1fd 8ebc 3b04 b83e 3a9e a43d
000001f0: 4d36 8b3c 01b3 2c3d a506 8fbd 4eac edbd
00000200: e422 cbbd 041d 6c3d da7e b1bd 9fae b23b
00000210: f6ec 473d 2fee 4f3d ae0e 3dbd 7faa d8bd
00000220: 0af6 b03c 92d0 0fbd 7c9e 653d fe5c bf3d
00000230: eab2 4c3d 173e 603d 2800 36be 409c 48bc
00000240: 00c1 fbbb 7d27 c33d b6a3 7c3d 95c7 f6bd
00000250: 90ff 513d 66bf bcbc 4042 5d3d e5c5 96bc
00000260: 0900 d6bb e27e 393e 7d38 9abc f842 ee3d
00000270: 70d9 a1be 1453 6cbd 285f 4dbd 71e3 8fbe
00000280: e82c 3b3d 999f 5d3d 4c6e dbbd 0390 0fbe
00000290: afe5 19bd 87cb 993d 12b3 45be efa1 b53c
000002a0: 643b de3b 6678 ffbd 29cf 8c3d a09a 2f3c
000002b0: 788c 6b3d a041 bcbd d414 b23e ddf7 9abe
000002c0: 89af 9fbd dd6d b5bc 7e8f 9abd d51b e43d
000002d0: 80d1 0f3c 7829 0139 d0a4 ea3c 75a7 0fbe
000002e0: 06d3 9c3d db9c e13b 0fa9 203d 6c19 7abd
000002f0: 1e27 8ebe 5377 29bd 5b54 4dbe 53ec 43bd
00000300: d35d a83c 1136 3ebe 9f4b 4ebe c2dc 89bc
00000310: 2b07 eabd 0190 02bc 7dc7 93bd ff81 843b
00000320: 4f78 7bbb 7db2 1f3d 0b38 d6bd f01e 72bd
00000330: ca95 de3c 2fb3 9e3c 224b ebbd 4d6c d9bd
00000340: 0a1c ccbd c840 2bbf 98d8 223d 83eb 3a3d
00000350: 370a 8b3b 928d aabd 418b 803d 8ad6 163d
00000360: fa0c aabc d533 9d3d 7bad 913d 910f 99bd
00000370: c061 813d 2080 30be 41e7 32bc f9cf 77bd
00000380: 4a3f 11bf 9319 9c3b 379f 313e 39cb c7bc
00000390: fadd edbe 3222 b83d 9514 f73d c202 8abb
000003a0: f139 b9be 3605 57bb fe69 083c 390a 143d
000003b0: b0ab 7bbd 5164 77bd c7b3 93be cf11 0dbe
000003c0: d23e a3bc 65ab 223d a9ba 6dbe 616e 813e
000003d0: f32a cd3e 93c5 debd 705f f13d f4d3 82bd
000003e0: dd0a 92be f05d fdbc 55ee 1c3e a211 c33c
000003f0: 36fe f83d f766 f3bd a164 973a 9197 3f3e

layers.6.bias f4 [32]
0.4999245 0.3043382 -0.13983105 0.45942226 -0.12738459 0.39753187 0.40663567 0.079943195
-0.89819354 0.61110175 0.00010040715 -0.52387494 0.50577354 0.1900917 0.044823218 0.10292927
-0.10842642 -0.07496356 0.07564909 0.094595246 0.1648515 -0.01243221 0.20596565 0.32910013
-0.86469126 0.5870811 0.11973002 0.26986626 -0.8056325 0.4817623 -0.1536875 -0.05035121
00000000: 1bf6 ff3e 37d2 9b3e df2f 0fbe 6539 eb3e
00000010: 1b71 02be 4c89 cb3e 8d32 d03e 42b9 a33d
00000020: 03f0 65bf 2a71 1c3f ae91 d238 ab1c 06bf
00000030: 607a 013f 66a7 423e 8d98 373d 95cc d23d
00000040: ac0e debd 7f86 99bd e9ed 9a3d 27bb c13d
00000050: d5ce 283e 78b0 4bbc a9e8 523e d07f a83e
00000060: 685c 5dbf f24a 163f 0335 f53d e92b 8a3e
00000070: ee3d 4ebf 8ca9 f63e 4260 1dbe 123d 4ebd

layers.8.weight f4 [2, 32]
-0.1811509 0.007632118 0.009845749 0.2277248 0.052581556 0.20342605 -0.13256876 -0.023249023
-0.1545958 0.19546132 0.011992636 -0.0013571304 0.08916701 0.01771596 0.0037560756 0.036296725
0.03274591 -0.034819447 0.02458047 0.0069848946 0.053719644 -0.051358037 -0.016323803 -0.03371274
-0.5171921 -0.19713427 0.093370624 0.005658398 -0.0026068073 0.12188367 0.0032111641 -0.016375752
0.044023518 -0.14427762 0.019980723 -0.023959555 -0.0092172455 0.073049165 0.11138808 -0.13296019
-0.17741169 -0.037353687 -0.0044755116 0.11136965 -0.0949013 0.079536796 0.055041853 0.027488511
0.08654013 -0.06323663 -0.06637511 0.10493582 0.008978136 -0.0025925292 -0.038170125 0.10773839
0.08297981 0.029602591 0.043064706 0.12804288 0.24128112 -0.011003671 -0.0068250555 -0.041647684
00000000: 9f7f 39be d916 fa3b 1050 213c b130 693e
00000010: c25f 573d eb4e 503e 1bc0 07be bc74 bebc
00000020: 5d4e 1ebe 0327 483e c37c 443c bde1 b1ba
00000030: 319d b63d 1021 913c 7e28 763b e0ab 143d
00000040: 9320 063d d69e 0ebd fb5c c93c 8be1 e43b
00000050: 2109 5c3d ce5c 52bd 7fb9 85bc 5f16 0abd
00000060: b466 04bf 91dd 49be 1939 bf3d 156a b93b
00000070: f8d6 2abb 259e f93d 6572 523b 7126 86bc
00000080: 0152 343d 83bd 13be 9dae a33c d446 c4bc
00000090: ee03 17bc cd9a 953d 6f1f e43d b726 08be
000000a0: 69ab 35be 2e00 19bd 50a7 92bb c515 e43d
000000b0: 9d5b c2bd 30e4 a23d 9173 613d 962f e13c
000000c0: f43b b13d 3582 81bd acef 87bd 97e8 d63d
000000d0: 0819 133c 6ce7 29bb 4758 1cbd f2a5 dc3d
000000e0: 52f1 a93d 2281 f23c 9e64 303d ac1d 033e
000000f0: 6612 773e be48 34bc b7a4 dfbb c396 2abd

layers.8.bias f4 [2]
-0.35210565 0.046208035
00000000: 3147 b4be a344 3d3d
